…
norm_mode='anchor', dim_ratio=[2, 2, 2, 1], num_blocks1=[1, 1, 2, 1], num_blocks2=[1, 1, 2, 1], k_neighbors=[24, 24, 24, 24], sampling_mode=['fps', 'fps', 'fps', 'fps'], sampling_ratio=[2, 2, 2, 2], de_dims=[512, 256, 128, 128], de_blocks=[2, 2, 2, 2], gmp_dim=64, cls_dim=64, num_cls=50, model='seg_shapenet', msg='-20250218154811-None', batch_size=128, test_batch_size=32, epochs=350, use_sgd=False, scheduler='step', step=40, lr=0.003, momentum=0.9, no_cuda=False, manual_seed=None, eval=False, workers=12, resume=False, model_type='insiou')
Using GPU
Decoder(
  (encoder): Encoder(
    (embedding): Embedding(
      (embd): mlp(
        (net): Sequential(
          (0): Conv1d(6, 16, kernel_size=(1,), stride=(1,))
          (1): BatchNorm1d(16, eps=1e-05, momentum=0.1, affine=True, track_running_stats=True)
          (2): ReLU(inplace=True)
        )
      )
    )
    (sampling_list): ModuleList(
      (0-3): 4 x Sampling()
    )
    (grouping_list): ModuleList(
      (0-3): 4 x Grouping()
    )
    (normalization_list): ModuleList(
      (0-3): 4 x Normalization()
    )
    (blocks1_list): ModuleList(
      (0): Block1(
        (transfer): mlp(
          (net): Sequential(
            (0): Conv1d(35, 32, kernel_size=(1,), stride=(1,), bias=False)
            (1): BatchNorm1d(32, eps=1e-05, momentum=0.1, affine=True, track_running_stats=True)
            (2): ReLU(inplace=True)
          )
        )
        (operation): Sequential(
          (0): Residual(
            (act): ReLU(inplace=True)
            (net1): Sequential(
              (0): Conv1d(32, 8, kernel_size=(1,), stride=(1,), bias=False)
              (1): BatchNorm1d(8, eps=1e-05, momentum=0.1, affine=True, track_running_stats=True)
              (2): ReLU(inplace=True)
            )
            (net2): Sequential(
              (0): Conv1d(8, 32, kernel_size=(1,), stride=(1,), bias=False)
              (1): BatchNorm1d(32, eps=1e-05, momentum=0.1, affine=True, track_running_stats=True)
            )
          )
        )
      )
      (1): Block1(
        (transfer): mlp(
          (net): Sequential(
            (0): Conv1d(67, 64, kernel_size=(1,), stride=(1,), bias=False)
            (1): BatchNorm1d(64, eps=1e-05, momentum=0.1, affine=True, track_running_stats=True)
            (2): ReLU(inplace=True)
          )
        )
        (operation): Sequential(
          (0): Residual(
            (act): ReLU(inplace=True)
            (net1): Sequential(
              (0): Conv1d(64, 16, kernel_size=(1,), stride=(1,), bias=False)
              (1): BatchNorm1d(16, eps=1e-05, momentum=0.1, affine=True, track_running_stats=True)
              (2): ReLU(inplace=True)
            )
            (net2): Sequential(
              (0): Conv1d(16, 64, kernel_size=(1,), stride=(1,), bias=False)
              (1): BatchNorm1d(64, eps=1e-05, momentum=0.1, affine=True, track_running_stats=True)
            )
          )
        )
      )
      (2): Block1(
        (transfer): mlp(
          (net): Sequential(
            (0): Conv1d(131, 128, kernel_size=(1,), stride=(1,), bias=False)
            (1): BatchNorm1d(128, eps=1e-05, momentum=0.1, affine=True, track_running_stats=True)
            (2): ReLU(inplace=True)
          )
        )
        (operation): Sequential(
          (0): Residual(
            (act): ReLU(inplace=True)
            (net1): Sequential(
              (0): Conv1d(128, 32, kernel_size=(1,), stride=(1,), bias=False)
              (1): BatchNorm1d(32, eps=1e-05, momentum=0.1, affine=True, track_running_stats=True)
              (2): ReLU(inplace=True)
            )
            (net2): Sequential(
              (0): Conv1d(32, 128, kernel_size=(1,), stride=(1,), bias=False)
              (1): BatchNorm1d(128, eps=1e-05, momentum=0.1, affine=True, track_running_stats=True)
            )
          )
          (1): Residual(
            (act): ReLU(inplace=True)
            (net1): Sequential(
              (0): Conv1d(128, 32, kernel_size=(1,), stride=(1,), bias=False)
              (1): BatchNorm1d(32, eps=1e-05, momentum=0.1, affine=True, track_running_stats=True)
              (2): ReLU(inplace=True)
            )
            (net2): Sequential(
              (0): Conv1d(32, 128, kernel_size=(1,), stride=(1,), bias=False)
              (1): BatchNorm1d(128, eps=1e-05, momentum=0.1, affine=True, track_running_stats=True)
            )
          )
        )
      )
      (3): Block1(
        (transfer): mlp(
          (net): Sequential(
            (0): Conv1d(259, 128, kernel_size=(1,), stride=(1,), bias=False)
            (1): BatchNorm1d(128, eps=1e-05, momentum=0.1, affine=True, track_running_stats=True)
            (2): ReLU(inplace=True)
          )
        )
        (operation): Sequential(
          (0): Residual(
            (act): ReLU(inplace=True)
            (net1): Sequential(
              (0): Conv1d(128, 32, kernel_size=(1,), stride=(1,), bias=False)
              (1): BatchNorm1d(32, eps=1e-05, momentum=0.1, affine=True, track_running_stats=True)
              (2): ReLU(inplace=True)
            )
            (net2): Sequential(
              (0): Conv1d(32, 128, kernel_size=(1,), stride=(1,), bias=False)
              (1): BatchNorm1d(128, eps=1e-05, momentum=0.1, affine=True, track_running_stats=True)
            )
          )
        )
      )
    )
    (agg_list): ModuleList(
      (0-3): 4 x Agg()
    )
    (blocks2_list): ModuleList(
      (0): Block2(
        (operation): Sequential(
          (0): Residual(
            (act): ReLU(inplace=True)
            (net1): Sequential(
              (0): Conv1d(32, 8, kernel_size=(1,), stride=(1,), bias=False)
              (1): BatchNorm1d(8, eps=1e-05, momentum=0.1, affine=True, track_running_stats=True)
              (2): ReLU(inplace=True)
            )
            (net2): Sequential(
              (0): Conv1d(8, 32, kernel_size=(1,), stride=(1,), bias=False)
              (1): BatchNorm1d(32, eps=1e-05, momentum=0.1, affine=True, track_running_stats=True)
            )
          )
        )
      )
      (1): Block2(
        (operation): Sequential(
          (0): Residual(
            (act): ReLU(inplace=True)
            (net1): Sequential(
              (0): Conv1d(64, 16, kernel_size=(1,), stride=(1,), bias=False)
              (1): BatchNorm1d(16, eps=1e-05, momentum=0.1, affine=True, track_running_stats=True)
              (2): ReLU(inplace=True)
            )
            (net2): Sequential(
              (0): Conv1d(16, 64, kernel_size=(1,), stride=(1,), bias=False)
              (1): BatchNorm1d(64, eps=1e-05, momentum=0.1, affine=True, track_running_stats=True)
            )
          )
        )
      )
      (2): Block2(
        (operation): Sequential(
          (0): Residual(
            (act): ReLU(inplace=True)
            (net1): Sequential(
              (0): Conv1d(128, 32, kernel_size=(1,), stride=(1,), bias=False)
              (1): BatchNorm1d(32, eps=1e-05, momentum=0.1, affine=True, track_running_stats=True)
              (2): ReLU(inplace=True)
            )
            (net2): Sequential(
              (0): Conv1d(32, 128, kernel_size=(1,), stride=(1,), bias=False)
              (1): BatchNorm1d(128, eps=1e-05, momentum=0.1, affine=True, track_running_stats=True)
            )
          )
          (1): Residual(
            (act): ReLU(inplace=True)
            (net1): Sequential(
              (0): Conv1d(128, 32, kernel_size=(1,), stride=(1,), bias=False)
              (1): BatchNorm1d(32, eps=1e-05, momentum=0.1, affine=True, track_running_stats=True)
              (2): ReLU(inplace=True)
            )
            (net2): Sequential(
              (0): Conv1d(32, 128, kernel_size=(1,), stride=(1,), bias=False)
              (1): BatchNorm1d(128, eps=1e-05, momentum=0.1, affine=True, track_running_stats=True)
            )
          )
        )
      )
      (3): Block2(
        (operation): Sequential(
          (0): Residual(
            (act): ReLU(inplace=True)
            (net1): Sequential(
              (0): Conv1d(128, 32, kernel_size=(1,), stride=(1,), bias=False)
              (1): BatchNorm1d(32, eps=1e-05, momentum=0.1, affine=True, track_running_stats=True)
              (2): ReLU(inplace=True)
            )
            (net2): Sequential(
              (0): Conv1d(32, 128, kernel_size=(1,), stride=(1,), bias=False)
              (1): BatchNorm1d(128, eps=1e-05, momentum=0.1, affine=True, track_running_stats=True)
            )
          )
        )
      )
    )
  )
  (decode_list): ModuleList(
    (0): FeaturePropagation(
      (fuse): mlp(
        (net): Sequential(
          (0): Conv1d(256, 512, kernel_size=(1,), stride=(1,), bias=False)
          (1): BatchNorm1d(512, eps=1e-05, momentum=0.1, affine=True, track_running_stats=True)
          (2): ReLU(inplace=True)
        )
      )
      (extraction): Block2(
        (operation): Sequential(
          (0): Residual(
            (act): ReLU(inplace=True)
            (net1): Sequential(
              (0): Conv1d(512, 128, kernel_size=(1,), stride=(1,), bias=False)
              (1): BatchNorm1d(128, eps=1e-05, momentum=0.1, affine=True, track_running_stats=True)
              (2): ReLU(inplace=True)
            )
            (net2): Sequential(
              (0): Conv1d(128, 512, kernel_size=(1,), stride=(1,), bias=False)
              (1): BatchNorm1d(512, eps=1e-05, momentum=0.1, affine=True, track_running_stats=True)
            )
          )
          (1): Residual(
            (act): ReLU(inplace=True)
            (net1): Sequential(
              (0): Conv1d(512, 128, kernel_size=(1,), stride=(1,), bias=False)
              (1): BatchNorm1d(128, eps=1e-05, momentum=0.1, affine=True, track_running_stats=True)
              (2): ReLU(inplace=True)
            )
            (net2): Sequential(
              (0): Conv1d(128, 512, kernel_size=(1,), stride=(1,), bias=False)
              (1): BatchNorm1d(512, eps=1e-05, momentum=0.1, affine=True, track_running_stats=True)
            )
          )
        )
      )
    )
    (1): FeaturePropagation(
      (fuse): mlp(
        (net): Sequential(
          (0): Conv1d(576, 256, kernel_size=(1,), stride=(1,), bias=False)
          (1): BatchNorm1d(256, eps=1e-05, momentum=0.1, affine=True, track_running_stats=True)
          (2): ReLU(inplace=True)
        )
      )
      (extraction): Block2(
        (operation): Sequential(
          (0): Residual(
            (act): ReLU(inplace=True)
            (net1): Sequential(
              (0): Conv1d(256, 64, kernel_size=(1,), stride=(1,), bias=False)
              (1): BatchNorm1d(64, eps=1e-05, momentum=0.1, affine=True, track_running_stats=True)
              (2): ReLU(inplace=True)
            )
            (net2): Sequential(
              (0): Conv1d(64, 256, kernel_size=(1,), stride=(1,), bias=False)
              (1): BatchNorm1d(256, eps=1e-05, momentum=0.1, affine=True, track_running_stats=True)
            )
          )
          (1): Residual(
            (act): ReLU(inplace=True)
            (net1): Sequential(
              (0): Conv1d(256, 64, kernel_size=(1,), stride=(1,), bias=False)
              (1): BatchNorm1d(64, eps=1e-05, momentum=0.1, affine=True, track_running_stats=True)
              (2): ReLU(inplace=True)
            )
            (net2): Sequential(
              (0): Conv1d(64, 256, kernel_size=(1,), stride=(1,), bias=False)
              (1): BatchNorm1d(256, eps=1e-05, momentum=0.1, affine=True, track_running_stats=True)
            )
          )
        )
      )
    )
    (2): FeaturePropagation(
      (fuse): mlp(
        (net): Sequential(
          (0): Conv1d(288, 128, kernel_size=(1,), stride=(1,), bias=False)
          (1): BatchNorm1d(128, eps=1e-05, momentum=0.1, affine=True, track_running_stats=True)
          (2): ReLU(inplace=True)
        )
      )
      (extraction): Block2(
        (operation): Sequential(
          (0): Residual(
            (act): ReLU(inplace=True)
            (net1): Sequential(
              (0): Conv1d(128, 32, kernel_size=(1,), stride=(1,), bias=False)
              (1): BatchNorm1d(32, eps=1e-05, momentum=0.1, affine=True, track_running_stats=True)
              (2): ReLU(inplace=True)
            )
            (net2): Sequential(
              (0): Conv1d(32, 128, kernel_size=(1,), stride=(1,), bias=False)
              (1): BatchNorm1d(128, eps=1e-05, momentum=0.1, affine=True, track_running_stats=True)
            )
          )
          (1): Residual(
            (act): ReLU(inplace=True)
            (net1): Sequential(
              (0): Conv1d(128, 32, kernel_size=(1,), stride=(1,), bias=False)
              (1): BatchNorm1d(32, eps=1e-05, momentum=0.1, affine=True, track_running_stats=True)
              (2): ReLU(inplace=True)
            )
            (net2): Sequential(
              (0): Conv1d(32, 128, kernel_size=(1,), stride=(1,), bias=False)
              (1): BatchNorm1d(128, eps=1e-05, momentum=0.1, affine=True, track_running_stats=True)
            )
          )
        )
      )
    )
    (3): FeaturePropagation(
      (fuse): mlp(
        (net): Sequential(
          (0): Conv1d(144, 128, kernel_size=(1,), stride=(1,), bias=False)
          (1): BatchNorm1d(128, eps=1e-05, momentum=0.1, affine=True, track_running_stats=True)
          (2): ReLU(inplace=True)
        )
      )
      (extraction): Block2(
        (operation): Sequential(
          (0): Residual(
            (act): ReLU(inplace=True)
            (net1): Sequential(
              (0): Conv1d(128, 32, kernel_size=(1,), stride=(1,), bias=False)
              (1): BatchNorm1d(32, eps=1e-05, momentum=0.1, affine=True, track_running_stats=True)
              (2): ReLU(inplace=True)
            )
            (net2): Sequential(
              (0): Conv1d(32, 128, kernel_size=(1,), stride=(1,), bias=False)
              (1): BatchNorm1d(128, eps=1e-05, momentum=0.1, affine=True, track_running_stats=True)
            )
          )
          (1): Residual(
            (act): ReLU(inplace=True)
            (net1): Sequential(
              (0): Conv1d(128, 32, kernel_size=(1,), stride=(1,), bias=False)
              (1): BatchNorm1d(32, eps=1e-05, momentum=0.1, affine=True, track_running_stats=True)
              (2): ReLU(inplace=True)
            )
            (net2): Sequential(
              (0): Conv1d(32, 128, kernel_size=(1,), stride=(1,), bias=False)
              (1): BatchNorm1d(128, eps=1e-05, momentum=0.1, affine=True, track_running_stats=True)
            )
          )
        )
      )
    )
  )
  (cls_map): Sequential(
    (0): mlp(
      (net): Sequential(
        (0): Conv1d(16, 64, kernel_size=(1,), stride=(1,), bias=False)
        (1): BatchNorm1d(64, eps=1e-05, momentum=0.1, affine=True, track_running_stats=True)
        (2): ReLU(inplace=True)
      )
    )
    (1): mlp(
      (net): Sequential(
        (0): Conv1d(64, 64, kernel_size=(1,), stride=(1,), bias=False)
        (1): BatchNorm1d(64, eps=1e-05, momentum=0.1, affine=True, track_running_stats=True)
        (2): ReLU(inplace=True)
      )
    )
  )
  (gmp_map_list): ModuleList(
    (0-1): 2 x mlp(
      (net): Sequential(
        (0): Conv1d(128, 64, kernel_size=(1,), stride=(1,), bias=False)
        (1): BatchNorm1d(64, eps=1e-05, momentum=0.1, affine=True, track_running_stats=True)
        (2): ReLU(inplace=True)
      )
    )
    (2): mlp(
      (net): Sequential(
        (0): Conv1d(64, 64, kernel_size=(1,), stride=(1,), bias=False)
        (1): BatchNorm1d(64, eps=1e-05, momentum=0.1, affine=True, track_running_stats=True)
        (2): ReLU(inplace=True)
      )
    )
    (3): mlp(
      (net): Sequential(
        (0): Conv1d(32, 64, kernel_size=(1,), stride=(1,), bias=False)
        (1): BatchNorm1d(64, eps=1e-05, momentum=0.1, affine=True, track_running_stats=True)
        (2): ReLU(inplace=True)
      )
    )
    (4): mlp(
      (net): Sequential(
        (0): Conv1d(16, 64, kernel_size=(1,), stride=(1,), bias=False)
        (1): BatchNorm1d(64, eps=1e-05, momentum=0.1, affine=True, track_running_stats=True)
        (2): ReLU(inplace=True)
      )
    )
  )
  (gmp_map_end): mlp(
    (net): Sequential(
      (0): Conv1d(320, 64, kernel_size=(1,), stride=(1,), bias=False)
      (1): BatchNorm1d(64, eps=1e-05, momentum=0.1, affine=True, track_running_stats=True)
      (2): ReLU(inplace=True)
    )
  )
  (classifier): Sequential(
    (0): Conv1d(256, 128, kernel_size=(1,), stride=(1,), bias=False)
    (1): BatchNorm1d(128, eps=1e-05, momentum=0.1, affine=True, track_running_stats=True)
    (2): Dropout(p=0.5, inplace=False)
    (3): Conv1d(128, 50, kernel_size=(1,), stride=(1,), bias=False)
  )
)
Learning rate: 0.003000
Train 1, loss: 0.642469, train acc: 0.814373, train ins_iou: 0.631927
Test 1, loss: 0.337923, test acc: 0.871900  test ins_iou: 0.709750
Max Acc:0.87190
Max instance iou:0.70975
aero iou: 0.66177183
bag iou: 0.4472482
cap iou: 0.5337511
car iou: 0.4733802
chair iou: 0.8171064
ear iou: 0.39221063
guitar iou: 0.7839524
…
